week01/simple_nn.pth (torch, 13231 bytes, 8 tensors)

weight f4 [25, 37]
0.19523764 0.3885384 0.18887672 -0.11840812 -0.09150256 -0.022990933 0.20951766 0.09736324
-0.17184293 0.06106791 0.106306486 -0.056791387 0.12794688 -0.331212 0.0008249081 -0.010485063
-0.32797387 -0.17269488 0.0027410327 0.06800139 -0.5347877 0.006101712 0.18654405 0.046083946
0.02756463 0.26388073 -0.17002778 0.087154016 0.017904172 -0.15355687 -0.08814002 0.13939384
0.13638806 0.23961124 0.1727413 -0.3994228 -0.14067967 0.2770815 -0.1444084 0.06160914
-0.06530617 0.11021773 0.17668015 0.24593604 -0.02088128 0.11204879 0.22814338 -0.177427
0.39281076 -0.073018916 0.25412974 0.32546633 0.032337498 -0.323885 0.046858482 0.15433802
-0.062423717 -0.078180745 0.19871774 -0.19594747 0.3480617 0.045706514 -0.04822693 -0.1170091
0.3947387 -0.29756674 0.024120808 0.19522712 -0.04174908 0.14654411 0.12273115 0.0128858425
-0.16887523 -0.18139505 0.06310025 -1.2197534 -0.24122828 -0.24326894 0.16185217 0.19689684
-0.1275211 -0.26242405 -0.19312185 -0.056809787 0.06389758 0.08986641 0.13555609 0.22507335
0.0039404645 0.17084987 0.18273315 -0.10286715 0.09403247 0.073251925 -0.09706929 -0.010683397
0.14233431 0.06861583 -0.12851988 0.06796643 -0.2539063 0.14486505 0.098149985 -0.24570575
0.00507767 0.2445007 0.083005175 -0.012722409 0.052646495 -0.2037012 -0.19828314 0.44310138
-0.26250264 -0.038683414 -0.29854915 0.059355453 -0.13504831 -0.05819093 0.11522519 0.06630466
0.1114615 -0.05174203 0.11967376 0.041931093 -0.14799452 -0.076571204 -0.029238354 -0.095427714
-0.21100734 0.106891565 0.080171145 0.17493616 -0.11566704 0.12748684 0.13203838 -0.15737928
0.028631348 0.34335694 -0.5424632 0.35442433 0.34096357 0.1236124 0.12557967 -0.08614604
0.06196038 0.062091224 0.123754814 -0.02409167 -0.12714204 0.5453003 0.1858708 0.055254564
-0.33668992 -0.24208038 0.05228295 0.27222097 -0.02088863 0.007850587 -0.21647625 -0.26329333
0.0655297 -0.09702969 -0.24894492 -0.21553637 -0.11789577 0.11722803 0.06386576 0.34898475
0.13921848 0.06094107 -0.46401805 0.07298465 -0.14282338 0.010202507 -0.2567755 -0.010561051
0.038153492 -0.28294483 0.047749758 -0.10334971 -0.19378693 -0.19866244 -0.075195506 0.23735225
0.19977775 -0.042979695 -0.15540136 -0.043024994 -0.020365734 -0.02938116 0.1884639 -0.3295458
0.0041144504 0.055030655 -0.05503772 -0.0438937 -0.019118274 -0.06526291 -0.31435323 0.11419037
0.33614218 0.0909092 -0.0460198 -0.09066998 0.019442532 -0.42052707 0.171866 0.19524902
-0.075903 0.059448358 -0.10389049 -0.34319535 0.07481553 -0.019426825 -0.3105127 -0.3085979
-0.049334213 0.039507452 -0.21290913 0.1042933 0.09943889 0.21321522 -0.05874358 -1.1234691
0.13379118 0.025709597 -0.039737318 0.14792688 0.14658831 0.31834957 0.23503745 -0.002623036
0.056327213 0.05478457 0.17201039 -0.071775466 -0.19762291 -0.004157051 0.1688184 0.034452192
-0.37718236 -0.010565959 -0.07463734 0.13596067 -0.0041124 -0.06953221 0.20535192 0.017392147
0.17518453 -0.12994315 -0.037082188 0.073195405 0.15454765 -0.14209472 0.098108426 -0.10003575
00000000: 60ec 473e 81ee c63e e668 413e f57f f2bd
00000010: b265 bbbd 7b57 bcbc cc8b 563e 6166 c73d
00000020: 98f7 2fbe 5822 7a3d 37b7 d93d 169e 68bd
00000030: 8204 033e 9f94 a9be a53e 583a 8bc9 2bbc
00000040: 31ec a7be edd6 30be e6a2 333b 5044 8b3d
00000050: d9e7 08bf dff0 c73b 6705 3f3e 85c2 3c3d
00000060: 38cf e13c 601b 873e c31b 2ebe ce7d b23d
00000070: c5ab 923c 033e 1dbe c182 b4bd 42bd 0e3e
00000080: 50a9 0b3e a65c 753e 18e3 303e 2581 ccbe
00000090: 550e 10be a0dd 8d3e ccdf 13be de59 7c3d
000000a0: 3ebf 85bd d5b9 e13d a4eb 343e a8d6 7b3e
000000b0: 380f abbc d679 e53d 6b9e 693e 6caf 35be
000000c0: 7e1e c93e f18a 95bd 4b1d 823e 86a3 a63e
000000d0: 5374 043d 41d4 a5be aeee 3f3d c90a 1e3e
000000e0: 03b0 7fbd 3a1d a0bd aa7c 4b3e 74a6 48be
000000f0: 2535 b23e c136 3b3d 9a89 45bd 78a2 efbd
00000100: 311b ca3e ab5a 98be 0099 c53c 9ee9 473e
00000110: 1501 2bbd a90f 163e 785a fb3d 241f 533c
00000120: a1ed 2cbe a0bf 39be b43a 813d e120 9cbf
00000130: 8c04 77be 7e1b 79be 93bc 253e 539f 493e
00000140: e494 02be 725c 86be bcc1 45be 61b1 68bd
00000150: bcdc 823d e10b b83d 37cf 0a3e a179 663e
00000160: 031f 813b 45f3 2e3e 661e 3b3e 03ac d2bd
00000170: 1894 c03d 1b05 963d 44cc c6bd 6a09 2fbc
00000180: 16c0 113e 7586 8c3d b79a 03be fc31 8b3d
00000190: 0200 82be 8157 143e dc02 c93d 4a9a 7bbe
000001a0: 9562 a63b 645e 7a3e 9efe a93d a771 50bc
000001b0: daa3 573d 0c97 50be bc0a 4bbe 2fde e23e
000001c0: bf66 86be 8072 1ebd 6fdb 98be b41e 733d
000001d0: 1b4a 0abe 9d59 6ebd 2ffb eb3d bdca 873d
000001e0: ed45 e43d 73ef 53bd 8417 f53d f0bf 2b3d
000001f0: e08b 17be 5dd1 9cbd 4685 efbc 9b6f c3bd
00000200: 4f12 58be f7e9 da3d c530 a43d 7722 333e
00000210: d7e2 ecbd e98b 023e 1235 073e 0928 21be
00000220: 4a8c ea3c 7bcc af3e dede 0abf 1b77 b53e
00000230: c792 ae3e 7f28 fd3d f597 003e 566d b0bd
00000240: 2bca 7d3d 5e53 7e3d 2a73 fd3d e55b c5bc
00000250: 8631 02be cd98 0b3f ea54 3e3e 9c52 623d
00000260: 9f62 acbe ebe3 77be a626 563d 8c60 8b3e
00000270: a21e abbc c09f 003c f3ab 5dbe 62ce 86be
00000280: 6f34 863d 81b7 c6bd 6beb 7ebe 91b5 5cbe
00000290: 5673 f1bd 4015 f03d 0dcc 823d 21ae b23e
000002a0: 4a8f 0e3e 589d 793d c693 edbe fa78 953d
000002b0: 4b40 12be 6a28 273c 1478 83be 4208 2dbc
000002c0: d646 1c3d 25de 90be 4095 433d 03a9 d3bd
000002d0: 1570 46be 2b6e 4bbe 1a00 9abd 780c 733e
000002e0: 8a92 4c3e 7a0b 30bd 8921 1fbe fa3a 30bd
000002f0: 0ad6 a6bc c2b0 f0bc aefc 403e 3aba a8be
00000300: 83d2 863b d367 613d 3b6f 61bd e1c9 33bd
00000310: ed9d 9cbc 90a8 85bd e8f2 a0be a4dc e93d
00000320: d41a ac3e 9a2e ba3d 427f 3cbd 2fb1 b9bd
00000330: f245 9f3c 534f d7be a4fd 2f3e 5cef 473e
00000340: 0873 9bbd 1f80 733d 8ac4 d4bd 4db7 afbe
00000350: e238 993d 0125 9fbc 85fb 9ebe 8b00 9ebe
00000360: ac12 4abd 91d2 213d da04 5abe ba97 d53d
00000370: 9ea6 cb3d 1755 5a3e 1c9d 70bd d6cd 8fbf
00000380: 8e00 093e ef9c d23c 99c3 22bd 257a 173e
00000390: 3f1b 163e b7fe a23e a8ad 703e 3ee7 2bbb
000003a0: 5db7 663d c965 603d 7e23 303e 04ff 92bd
000003b0: a95d 4abe df37 88bb bbde 2c3e be1d 0d3d
000003c0: 0c1e c1be d81c 2dbc 76db 98bd 4639 0b3e
000003d0: 50c1 86bb e766 8ebd c647 523e fa79 8e3c
000003e0: 9363 333e d10f 05be 7ee3 17bd 79e7 953d
000003f0: bd41 1e3e 4781 11be 12ed c83d 8bdf ccbd

bias f4 [25]
0.13123003 -0.06750197 -0.0019664532 0.05358287 -0.11045916 0.23984568 -0.12307121 -0.09786758
-0.081799716 -0.036632165 0.24635209 0.14472488 0.117168784 0.18268311 -0.3972036 -0.31050834
0.07257992 -0.12198653 0.22125074 -0.34937352 -0.084218055 0.007480508 0.26554736 -0.8612802
0.055996187
00000000: 2a61 063e 793e 8abd 9cdf 00bb b679 5b3d
00000010: 6938 e2bd 1b9a 753e c20c fcbd cc6e c8bd
00000020: 9c86 a7bd 9c0b 16bd b943 7c3e c232 143e
00000030: 30f6 ef3d 4811 3b3e 455e cbbe f3fa 9ebe
00000040: c8a4 943d 13d4 f9bd 8e8f 623e 16e1 b2be
00000050: 847a acbd 0d1f f53b d3f5 873e dc7c 5cbf
00000060: 425c 653d

weight f4 [25, 25]
0.07560794 0.024464805 -0.07433266 -0.15398334 -0.049018357 0.114594184 0.06994895 0.17301978
-0.12963995 -0.22434908 0.032675147 -0.058825947 0.08138088 0.025638299 0.23538125 0.06412568
0.22859958 0.09911842 0.012816738 -0.30852 0.45999837 -0.40251037 0.2715545 0.7782732
-0.08523257 -0.042024244 0.037817556 0.11821051 0.0067983405 0.24968162 0.007693311 0.00051128934
-0.0054029785 0.104146846 0.25962722 0.1282215 0.5672746 -0.22131181 -0.03634766 0.0718825
-0.36864585 -0.20133425 0.19407311 -0.31253082 0.28524265 -0.062049624 0.2210638 0.26142684
-0.47790006 -0.1810583 0.22921832 0.31009698 0.030671868 -0.0015666357 -0.110003136 -0.45664492
-0.10084532 -0.14440024 0.3756523 -0.021642124 0.12685607 0.1663791 -0.061695285 -0.03535851
0.02591784 0.03490467 0.06884563 0.1303492 0.08335566 0.3624673 0.24151751 -0.13289055
-0.35906437 0.53932 0.3687663 0.01629316 0.18703344 -0.17706163 -0.16951632 -0.09002184
0.2905751 0.2296775 -0.04306441 0.0805464 -0.31117225 0.030673446 -0.09095009 0.3612219
0.17699486 0.88372594 -0.1855867 0.46392316 -0.12745291 0.055312846 -0.24590957 -0.036412276
0.32439983 -0.037975866 0.51212186 0.114172004 -0.1457122 -0.08596515 -0.033204176 0.38867024
-0.6408717 0.13337873 -0.44053513 0.17994724 -0.045218796 -0.20987166 0.3474134 -0.27261
0.36507446 -0.17280371 -0.35077992 0.3226287 -0.2066001 0.08294148 -0.06423467 0.50217766
-0.0888458 -0.35303196 0.0031956953 0.10306246 -0.2929347 -0.08443434 0.11216086 -0.016183032
0.09350818 -0.2831599 0.04312811 -0.055157814 0.37818605 0.32137704 -0.25818944 0.08192414
-0.08453992 0.33784047 -0.12386826 0.002431948 0.46123877 -0.0017239011 0.1842225 -0.06320636
0.28139803 0.0139374705 0.21871425 0.33545047 0.11866477 0.27650398 0.33281925 -0.47831586
0.2554407 0.22850941 -0.29012597 -0.16570753 0.4822346 0.30624536 -0.013640199 0.15925318
-0.052411094 -0.13395979 0.002909354 -0.5387446 -0.021043591 0.022458512 0.12829939 -0.32577524
-0.13587025 0.33676496 0.2083772 0.12913585 -0.057985008 0.27539915 -0.050398264 -0.08725467
-0.2785569 0.18923415 0.06007468 0.16138387 -0.17208481 0.12768294 -0.30516475 0.27544135
-0.09553525 0.2522576 0.13160531 -0.021356005 -0.1962762 0.3119033 0.08345212 0.064445354
0.057312038 0.06261524 0.0661316 0.13964674 0.4168292 0.01408703 -0.28356636 0.05860806
0.19927995 0.06471031 -0.057092056 0.35326877 -0.06989315 0.09102593 0.29097548 0.22514345
-0.04054057 0.32956594 -0.04320339 0.11510906 -0.08039002 0.16821647 0.059583288 0.117948994
-0.16401653 0.3451647 0.2852755 -0.6435093 0.025201797 0.27144426 -0.07030607 -0.6072904
0.21216553 -0.29193962 0.4517594 0.1963931 0.19603555 -0.082771696 -0.41223806 -0.10599983
-0.07284153 -0.36450824 -0.14016087 0.015036038 -0.09498884 -0.07752211 -0.82070726 -0.33183974
0.03411087 -0.26175156 -0.15519646 0.13970737 0.5998227 -0.28008643 -0.017484728 -0.40736064
-0.2154338 0.06186964 -0.18761797 0.06003049 -0.00020908445 -0.037143037 -0.386528 0.029482927
00000000: 56d8 9a3d 6a6a c83c b93b 98bd cfad 1dbe
00000010: 79c7 48bd 5bb0 ea3d 6541 8f3d 192c 313e
00000020: 56c0 04be c4bb 65be 60d6 053d 7af3 70bd
00000030: 05ab a63d 6907 d23c c807 713e 5354 833d
00000040: 0216 6a3e 99fe ca3d 4cfd 513c 55f6 9dbe
00000050: e884 eb3e d715 cebe 3109 8b3e ea3c 473f
00000060: 6a8e aebd 9d21 2cbd 95e6 1a3d 5a18 f23d
00000070: 9dc4 de3b 8aac 7f3e 2c18 fc3b 0c08 063a
00000080: 780b b1bb f14a d53d dced 843e 7f4c 033e
00000090: e838 113f 909f 62be 49e1 14bd 2237 933d
000000a0: 26bf bcbe 912a 4ebe 1abb 463e 0a04 a0be
000000b0: 530b 923e bf27 7ebd 8c5e 623e bdd9 853e
000000c0: 51af f4be 5967 39be 35b8 6a3e 08c5 9e3e
000000d0: 9243 fb3c 9257 cdba 5349 e1bd 5dcd e9be
000000e0: fe87 cebd a8dd 13be 8055 c03e d34a b1bc
000000f0: 8fe6 013e 485f 2a3e 32b4 7cbd 16d4 10bd
00000100: a651 d43c 33f8 0e3d f0fe 8c3d 437a 053e
00000110: 5fb6 aa3d 5095 b93e 5e50 773e 7614 08be
00000120: 49d7 b7be e010 0a3f f0ce bc3e 3c79 853c
00000130: b285 3f3e a54f 35be b095 2dbe 5f5d b8bd
00000140: 42c6 943e 9430 6b3e 4f64 30bd 83f5 a43d
00000150: f851 9fbe e146 fb3c 0a44 babd 14f2 b83e
00000160: 243e 353e dd3b 623f 710a 3ebe 5687 ed3e
00000170: 0483 02be b98f 623d b8cf 7bbe 0a25 15bd
00000180: bc17 a63e 958c 1bbd 6b1a 033f 03d3 e93d
00000190: 9435 15be 7f0e b0bd 1a01 08bd c9ff c63e
000001a0: 2b10 24bf 6f94 083e d28d e1be 1744 383e
000001b0: 5837 39bd 99e8 56be 2be0 b13e 8a93 8bbe
000001c0: 0aeb ba3e 75f3 30be 6d99 b3be 972f a53e
000001d0: fa8e 53be 39dd a93d 778d 83bd b78e 003f
000001e0: c9f4 b5bd 9bc0 b4be df6e 513b 6912 d33d
000001f0: 89fb 95be e9eb acbd 98b4 e53d 4792 84bc
00000200: 3781 bf3d 56fa 90be 1aa7 303d 29ed 61bd
00000210: 9aa1 c13e 888b a43e 6831 84be d8c7 a73d
00000220: 4423 adbd 6df9 ac3e a4ae fdbd 5161 1f3b
00000230: 7d27 ec3e 86f4 e1ba d3a4 3c3e 5672 81bd
00000240: 6713 903e fd59 643c a1f6 5f3e 2ac0 ab3e
00000250: 8406 f33d ee91 8d3e 4967 aa3e d1e5 f4be
00000260: 20c9 823e 5ffe 693e 648b 94be 3caf 29be
00000270: 74e7 f63e 31cc 9c3e 247b 5fbc 4413 233e
00000280: 04ad 56bd c12c 09be dcaa 3e3b 2beb 09bf
00000290: 9c63 acbc eafa b73c ea60 033e 03cc a6be
000002a0: 9221 0bbe 756c ac3e d560 553e 303c 043e
000002b0: b081 6dbd 1e01 8d3e 696e 4ebd 94b2 b2bd
000002c0: 039f 8ebe 99c6 413e de10 763d d041 253e
000002d0: 0037 30be 51bf 023e 8e3e 9cbe a606 8d3e
000002e0: fca7 c3bd e827 813e 8bc3 063e caf2 aebc
000002f0: a1fc 48be cab1 9f3e f2e8 aa3d edfb 833d
00000300: 07c0 6a3d 6b3c 803d 0170 873d 8eff 0e3e
00000310: a36a d53e 49cd 663c 9c2f 91be 010f 703d
00000320: 0b10 4c3e d786 843d 5cd9 69bd a5df b43e
00000330: 2424 8fbd ce6b ba3d bdfa 943e 018c 663e
00000340: de0d 26bd debc a83e 0af6 30bd 4dbe eb3d
00000350: 86a3 a4bd f040 2c3e 9b0d 743d 3e8f f13d
00000360: f3f3 27be 6db9 b03e a10f 923e 07bd 24bf
00000370: 0074 ce3c befa 8a3e a1fc 8fbd 6277 1bbf
00000380: ec41 593e 1c79 95be 024d e73e 461b 493e
00000390: 8bbd 483e 3584 a9bd de10 d3be 7016 d9bd
000003a0: f12d 95bd d3a0 babe 5586 0fbe b759 763c
000003b0: 8289 c2bd e9c3 9ebd df19 52bf e6e6 a9be
000003c0: d7b7 0b3d 4d04 86be d2eb 1ebe 730f 0f3e
000003d0: fb8d 193f 7d67 8fbe 223c 8fbc 9391 d0be
000003e0: ae9a 5cbe 056b 7d3d ed1e 40be 88e2 753d
000003f0: ae3d 5bb9 4c23 18bd ffe6 c5be 2e86 f13c

bias f4 [25]
-0.078894846 0.50939256 0.058055606 -0.11458217 -0.15044725 -0.19255733 0.16699548 0.07665813
-0.23463771 0.24775146 -0.062072612 -0.102432616 -0.09076333 0.044332158 0.2767324 0.26663172
-0.37344033 0.38044155 -0.21905696 0.10394726 0.044664532 0.015960636 -0.030547459 -0.41595158
0.24172531
00000000: 9f93 a1bd 8d67 023f b7cb 6d3d 0faa eabd
00000010: d80e 1abe c02d 45be dd00 2b3e f0fe 9c3d
00000020: de44 70be 8fb2 7d3e da3f 7ebd 31c8 d1bd
00000030: 20e2 b9bd a395 353d deaf 8d3e f483 883e
00000040: 9233 bfbe 3cc9 c23e 7850 60be 4de2 d43d
00000050: 28f2 363d e1bf 823c aa3e fabc 9bf7 d4be
00000060: d786 773e

weight f4 [25, 25]
0.446864 0.37086475 -0.6008921 0.029346434 -0.20297739 -0.1500707 0.33248672 0.44694597
0.24826261 0.39658964 -0.27874392 -0.07806772 -0.14363906 0.19213161 0.02518554 0.36357772
-0.2844424 -0.43674856 0.34168133 -0.3147213 -0.32135642 0.1305954 -0.70370114 -0.8994153
0.013892592 0.36935732 0.46820864 -0.06883541 -0.0846438 0.06530307 0.0045145396 -0.13280387
-0.1313608 0.06941884 0.0058462494 0.1284488 0.2830983 -0.095646285 0.27179617 0.83088696
0.1743659 1.3745676 -0.062006865 0.11591226 0.15778433 -0.2103533 0.27216092 -0.09246633
-0.01629956 0.048400253 -0.33885157 0.20880426 -0.19368671 0.122663856 0.15554392 0.19568726
0.080993295 -0.10163943 -0.32093024 -0.5881297 0.14953275 0.02954846 0.0860766 0.043862935
0.0899717 0.19884081 0.19018236 0.27024275 0.020568227 -0.00050029194 0.20889293 0.13946171
0.27580526 0.8945745 0.3481749 -0.4422562 -0.022977525 0.0613246 -0.2730918 0.49877053
0.224455 0.06720011 -0.05481695 0.6077488 0.13736977 -0.09557038 -0.17979869 -0.118396685
-0.036947884 -0.13045351 0.34526938 -1.0974922 -0.34091333 -0.49965554 0.37963298 0.09667385
-0.174002 -0.2199157 -1.0423378 0.26692066 0.5521221 -0.06803808 -0.03543075 0.16750568
0.25960657 0.15327956 -0.5221476 0.21842903 0.03363662 -0.48704258 0.17489913 0.026261613
-0.1100091 0.17769031 -0.023528924 0.29621089 0.4262836 -0.046771463 0.6194631 -0.4241746
-0.8171367 0.22465108 0.09899225 -0.5930116 -0.14018947 -0.21340017 -0.123918295 0.2006162
-0.26591876 0.46645316 -0.416217 -0.4085037 0.10313015 -0.07409259 -0.031013343 -0.09557595
0.27083066 0.27080196 -0.39784965 -0.32514432 -0.3693177 0.001711618 0.53283304 -0.12161743
0.28760514 -0.34699428 0.030311698 0.12392278 0.21325795 0.2285148 0.32210955 0.11793875
0.3416831 0.09908184 0.31655157 -0.33120745 0.20141064 -0.33734953 0.2241096 -0.1110265
0.28221467 -0.20816047 -0.3761849 -0.077140026 -0.44371024 -0.04419983 0.29629412 -0.7354052
-0.043015752 -0.4864723 -0.0689053 0.10282857 -0.07846721 0.24075368 -0.37452456 -0.04983962
0.41686466 0.088503934 -0.17369947 -0.12405633 0.036094934 -0.0067219273 -0.17255972 -0.17579107
-0.31671533 0.12676309 0.19755605 0.08819222 0.22307171 0.20833811 0.10893399 0.019782651
-0.041997205 -0.16544835 0.33573332 0.19896309 -0.100946434 0.046674393 0.6783612 0.16513613
-0.03939097 -0.031022998 -0.008443123 0.14917065 -0.18286021 -0.09758423 -0.4156113 0.0614878
0.22812445 1.0065947 -0.06995653 0.1519014 0.08896899 0.1646638 0.20625424 -0.20141944
0.24655156 0.15069285 0.27835017 -0.16787839 -0.4480568 0.28695846 0.1545215 -0.68167424
-0.30825916 -0.066425495 0.41905123 0.34269798 -0.1667279 0.04779627 0.035757463 0.21922821
-0.0041755387 -0.18671036 -0.2184949 -0.005213421 0.6087155 0.27125585 0.1427433 0.6568301
0.4230062 0.24866651 -0.37301755 -0.059354037 -0.021344949 -0.063937575 0.011244921 -0.116462484
0.39467335 -0.102379836 0.32360095 -0.23056741 0.05554126 0.1519556 -0.89406186 0.2205366
00000000: 5ccb e43e fce1 bd3e 11d4 19bf ef67 f03c
00000010: 4ed9 4fbe 22ac 19be b33b aa3e 1ad6 e43e
00000020: 8e38 7e3e cc0d cb3e 86b7 8ebe f8e1 9fbd
00000030: 1e16 13be 26be 443e e851 ce3c dc26 ba3e
00000040: 6fa2 91be 829d dfbe dbf0 ae3e 2623 a1be
00000050: d488 a4be cdba 053e c225 34bf 1540 66bf
00000060: c19d 633c 671c bd3e 0bb9 ef3e 94f9 8cbd
00000070: bb59 adbd 9ebd 853d b4ee 933b bdfd 07be
00000080: 7283 06be 772b 8e3d e591 bf3b 1588 033e
00000090: 43f2 903e 33e2 c3bd de28 8b3e 02b5 543f
000000a0: f98c 323e d5f1 af3f e9fa 7dbd 6863 ed3d
000000b0: 3792 213e db66 57be ad58 8b3e fd5e bdbd
000000c0: a886 85bc 583f 463d f47d adbe c9d0 553e
000000d0: cf55 46be 3037 fb3d e846 1f3e 3e62 483e
000000e0: d0df a53d 5528 d0bd f850 a4be ab8f 16bf
000000f0: 1d1f 193e 9d0f f23c ee48 b03d 9fa9 333d
00000100: 1543 b83d ed9c 4b3e 2abf 423e 425d 8a3e
00000110: b37e a83c 0626 03ba 07e8 553e 0dcf 0e3e
00000120: 5936 8d3e d602 653f fb43 b23e 686f e2be
00000130: 5d3b bcbc 812f 7b3d b0d2 8bbe da5e ff3e
00000140: 88d7 653e 36a0 893d bd87 60bd 6d95 1b3f
00000150: a9aa 0c3e 67ba c3bd 261d 38be f679 f2bd
00000160: aa56 17bd 9b95 05be 26c7 b03e a07a 8cbf
00000170: 318c aebe dad2 ffbe 415f c23e f1fc c53d
00000180: 952d 32be 9531 61be 536b 85bf d3a9 883e
00000190: e057 0d3f 8d57 8bbd d61f 11bd 9c86 2b3e
000001a0: 27eb 843e 51f5 1c3e 77ab 05bf dcab 5f3e
000001b0: 8dc6 093d a55d f9be c218 333e 9822 d73c
000001c0: 734c e1bd 73f4 353e bbbf c0bc f4a8 973e
000001d0: d841 da3e 6f93 3fbd 2295 1e3f 6a2d d9be
000001e0: df2f 51bf ef0a 663e 73bc ca3d 9ccf 17bf
000001f0: d48d 0fbe 9385 5abe e0c8 fdbd 556e 4d3e
00000200: 8126 88be f3d2 ee3e 651a d5be 6627 d1be
00000210: e635 d33d dbbd 97bd b20f febc 53bd c3bd
00000220: 51aa 8a3e 8ea6 8a3e f3b2 cbbe 5179 a6be
00000230: 3617 bdbe 5f58 e03a bf67 083f 8f12 f9bd
00000240: fb40 933e 3ca9 b1be 3d50 f83c 3acb fd3d
00000250: 4b60 5a3e c9ff 693e 8beb a43e df89 f13d
00000260: 16f1 ae3e 6beb ca3d 0c13 a23e 0694 a9be
00000270: 973e 4e3e 14b9 acbe fd7c 653e dd61 e3bd
00000280: 717e 903e 0528 55be 4f9b c0be 97fb 9dbd
00000290: fd2d e3be e20a 35bd ddb3 973e 8443 3cbf
000002a0: 4931 30bd e612 f9be 391e 8dbd c997 d23d
000002b0: 6bb3 a0bd 2288 763e afc1 bfbe a124 4cbd
000002c0: 496f d53e 8d41 b53d 46de 31be 3f11 febd
000002d0: 48d8 133d 9d43 dcbb 7fb3 30be 9302 34be
000002e0: 8328 a2be 2fce 013e 224c 4a3e 1f9e b43d
000002f0: e96c 643e 9656 553e c918 df3d 3a0f a23c
00000300: 4305 2cbd 4b6b 29be 3de5 ab3e fbbc 4b3e
00000310: 01bd cebd a62d 3f3d 14a9 2d3f 7219 293e
00000320: 6d58 21bd f123 febc 0655 0abc 31c0 183e
00000330: b53f 3bbe 3eda c7bd 01cb d4be a2da 7b3d
00000340: 7599 693e 18d8 803f 5f45 8fbd 0a8c 1b3e
00000350: 6035 b63d a19d 283e 5034 533e e640 4ebe
00000360: 0378 7c3e 3a4f 1a3e ea83 8e3e 50e8 2bbe
00000370: b367 e5be 38ec 923e e23a 1e3e 3482 2ebf
00000380: 25d4 9dbe 170a 88bd e28d d63e 1c76 af3e
00000390: b8ba 2abe 06c6 433d 6b76 123d 5c7d 603e
000003a0: f5d2 88bb 0031 3fbe 21bd 5fbe 58d5 aabb
000003b0: c7d4 1b3f 0ce2 8a3e 4d2b 123e 0426 283f
000003c0: 4594 d83e 6fa2 7e3e 28fc bebe 381d 73bd
000003d0: 9adb aebc b4f1 82bd 9e3c 383c e283 eebd
000003e0: a012 ca3e 85ac d1bd 06af a53e dd19 6cbe
000003f0: 3b7f 633d 409a 1b3e 3de1 64bf 59d4 613e

bias f4 [25]
0.14401002 0.037086137 0.036314834 -0.08601409 0.06702913 -0.03613143 -0.0131055685 0.05560849
0.23292477 0.24460196 -0.41666633 0.0019844407 0.35186553 -0.32790992 -0.08932746 0.09205433
0.21157046 -0.026365092 -0.15985449 0.20018847 0.17194794 0.14073901 -0.05012218 0.3200929
-0.2229908
00000000: 5d77 133e a2e7 173d ddbe 143d 2828 b0bd
00000010: 9246 893d 8dfe 13bd bdb8 56bc bac5 633d
00000020: d583 6e3e f078 7a3e 4a55 d5be 640d 023b
00000030: b827 b43e cfe3 a7be 51f1 b6bd fb86 bc3d
00000040: eda5 583e 9bfb d7bc e5b0 23be 35fe 4c3e
00000050: 1f13 303e e31d 103e ea4c 4dbd 37e3 a33e
00000060: b357 64be

weight f4 [4, 25]
0.60635656 0.19947776 -0.15394275 -0.93717325 0.4263896 0.25853023 -1.4369541 -0.05474558
0.2603785 -0.15219088 0.7240445 -0.5194328 0.15173128 -0.090973444 -0.10747028 0.1518366
0.5102218 -0.04123992 -1.3548176 0.059308454 -0.17706272 0.19715427 0.12089878 -0.64578843
-0.1319886 0.57268953 -0.4684268 -0.114477895 0.3091498 0.2927763 0.101973586 -0.054776397
-0.12477858 0.057282228 -0.81399065 0.12772073 0.23121253 -0.5407467 0.057715118 0.17345722
-0.265901 0.6820596 -0.19060066 -0.2454545 -0.22430186 -0.29095265 -0.020818202 -0.15871757
1.0048218 0.09580485 -0.1107439 0.22053434 -0.26181656 0.56632334 -0.43679255 0.9297154
0.74213797 0.104718156 0.13280058 0.25197065 -0.33906338 -0.00047152548 0.12842397 -0.6767481
-0.53131557 -0.27444312 -1.0087783 -0.15939122 0.44309896 -0.19137035 -0.14487231 0.19666517
-0.44206262 0.2584665 -0.028814802 -1.2569674 0.124034405 0.1939884 -0.19990426 -0.06435502
-0.84889156 0.08257063 0.21043448 -0.2859161 0.23547257 -1.1387904 0.048008673 -0.1774578
0.0534465 0.1511177 -0.10479344 -0.13366114 -0.13352256 0.14910418 0.3657552 0.18277918
-0.1341526 -0.022116862 -0.78845173 -0.19159013
00000000: 2f3a 1b3f e643 4c3e 2ba3 1dbe 96ea 6fbf
00000010: bd4f da3e 135e 843e 1dee b7bf e73c 60bd
00000020: 5550 853e edd7 1bbe fb5a 393f 8cf9 04bf
00000030: 725f 1b3e 4950 babd 6119 dcbd 0e7b 1b3e
00000040: e59d 023f 31eb 28bd aa6a adbf 6ced 723d
00000050: ee4f 35be cfe2 493e c899 f73d 6452 25bf
00000060: 0528 07be c89b 123f a3d5 efbe 6373 eabd
00000070: e248 9e3e c6e6 953e 87d7 d03d 375d 60bd
00000080: ea8b ffbd c5a0 6a3d b161 50bf 39c9 023e
00000090: fac2 6c3e 606e 0abf b066 6c3d c59e 313e
000000a0: 2d24 88be 759b 2e3f d22c 43be 6d58 7bbe
000000b0: 63af 65be bff7 94be ef8a aabc dc86 22be
000000c0: 009e 803f 5535 c43d b3cd e2bd c1d3 613e
000000d0: d20c 86be 91fa 103f 46a3 dfbe d401 6e3f
000000e0: c1fc 3d3f 7976 d63d e0fc 073e 4c02 813e
000000f0: b799 adbe 1437 f7b9 9381 033e 5d3f 2dbf
00000100: 4c04 08bf cf83 8cbe a61f 81bf 7437 23be
00000110: dedd e23e 97f6 43be 6859 14be 9862 493e
00000120: 0856 e2be b955 843e 050d ecbc 4fe4 a0bf
00000130: c005 fe3d e5a4 463e b4b3 4cbe 91cc 83bd
00000140: f550 59bf ca1a a93d 237c 573e 9863 92be
00000150: b91f 713e e2c3 91bf bea4 443d 7fb7 35be
00000160: b8ea 5a3d 99be 1a3e f19d d6bd 77de 08be
00000170: 23ba 08be c4ae 183e 4444 bb3e 772a 3b3e
00000180: 4d5f 09be 6c2e b5bc f9d7 49bf 3430 44be

bias f4 [4]
-0.045306996 -0.13550279 0.15845525 -0.04627116
00000000: d493 39bd 3ec1 0abe 1842 223e d486 3dbd
